model2.pth (torch, 11134 bytes, 6 tensors)

l1.weight f4 [8, 186]
-0.7304653 -0.73040426 -0.39114538 -0.46501464 0.4087645 0.03649725 -0.34652236 -0.34993544
-0.7300959 -0.40271327 -0.32763627 0.8233859 0.37473726 0.38294172 0.39358705 0.38139507
0.26379845 0.33796328 0.3873395 0.78879607 0.27888522 0.40894955 0.1990321 0.703447
0.16168566 0.3770518 0.18047665 0.04981926 0.13355656 0.073033765 0.19746533 0.2100395
0.17248358 0.14765261 0.1098143 0.07222788 0.3832591 0.43393856 0.03957733 0.07048923
0.052206527 0.062235087 -0.017094212 0.3438182 0.32813177 0.080739126 0.1936267 0.22463785
0.13136397 0.062170397 0.10855329 -0.004493982 0.41257358 -0.015541299 -0.02740058 0.31892505
0.2894606 0.26877126 0.01862117 0.071894206 -0.0034357419 -0.1182533 0.19754511 -0.50805026
0.10931266 0.00017583091 -0.33700636 -0.40328693 0.15791947 -0.2210428 -0.21116208 0.026342982
0.20360754 -0.27491495 -0.19239594 0.08253602 -0.029223602 0.006982084 -0.13079081 -0.36448795
0.028667562 -0.2517908 0.01772164 -0.00999655 -0.48457134 0.18488069 -0.10563998 -0.13623863
-0.088493034 -0.061948378 -0.13907932 -0.103313535 -0.07789476 0.060559455 0.096244335 -0.3657779
-0.4510948 -0.43569463 0.06409754 0.09828104 0.31556794 0.22165146 0.33080614 0.30085137
-0.03738198 0.088623255 0.060755115 0.1791206 0.27594748 0.13793243 0.12969834 -0.09167365
-0.10497247 0.13922042 0.2178351 0.0075383834 0.008248196 0.34101763 0.21136308 0.20333698
0.19881588 0.08078564 0.2037706 0.025407339 0.085969694 -0.029516663 0.030098233 0.104334794
-0.2533483 -0.25603127 -0.44874257 0.026213584 0.089858025 -0.03139552 -0.053057298 -0.120738514
0.13197802 -0.010422964 -0.122086875 -0.039927974 0.087825075 -0.27935433 0.03675214 0.03907301
0.11152682 0.067666456 -0.16819409 -0.009145237 -0.11818337 0.017656494 -0.0046116933 -0.11747612
0.40760282 -0.15395558 -0.024230737 0.4484725 0.034522872 -0.2627104 0.072720915 0.032450687
-0.12502746 -0.26798496 -0.27479276 0.036414556 -0.21120037 -0.11264907 0.07778531 0.032744024
-0.2729742 -0.12967676 -0.21823196 -0.15949292 0.05351614 -0.17681713 -0.1257393 -0.1225364
0.0934429 0.14122625 -0.26303914 -0.13265385 -0.2136824 -0.030218545 -0.119378604 -0.12421803
-0.22692968 -0.15006189 -0.2590369 -0.25835696 -0.23999849 -0.25254878 0.07356616 -0.07372766
-0.008312907 -0.061671834 -0.2590612 -0.14699331 -0.11118315 0.5335074 0.23596022 0.08352677
0.04382457 0.115959175 0.08141472 0.25217927 0.07647936 -0.25826222 -0.22664902 0.08779248
-0.18511747 -0.25831342 -0.28511837 0.07376643 -0.18512887 0.17507014 0.17350508 0.30690485
-0.27709553 -0.16961092 -0.18922931 -0.1682798 -0.17961212 -0.06780934 -0.3147082 -0.44614738
0.17742643 0.23806818 -0.1679089 0.01970805 -0.14029437 -0.2708162 -0.41761512 0.09852537
0.27664292 0.38342586 0.19758263 0.12954502 -0.19998585 -0.18165258 -0.38865536 -0.023258287
-0.10785687 -0.40696537 0.32976264 0.041560568 0.15100755 0.26039407 0.34654796 0.36207208
0.43598834 0.2282157 0.26866862 0.2085209 0.01417783 0.1318114 0.44112906 0.35225904
00000000: c6ff 3abf c6fb 3abf 3544 c8be 6616 eebe
00000010: 9549 d13e 247e 153d 616b b1be bd2a b3be
00000020: 91e7 3abf 6f30 cebe f1bf a7be 6bc9 523f
00000030: 90dd bf3e f010 c43e 3e84 c93e 3746 c33e
00000040: 9710 873e 8609 ad3e 5d51 c63e 8aee 493f
00000050: 0bca 8e3e d661 d13e 12cf 4b3e 1a15 343f
00000060: ed90 253e ef0c c13e dfce 383e 480f 4c3d
00000070: 0dc3 083e ba92 953d 5a34 4a3e 9814 573e
00000080: 899f 303e 3f32 173e 52e6 e03d 36ec 933d
00000090: 893a c43e 322d de3e d71b 223d a85c 903d
000000a0: 83d6 553d 38ea 7e3d 2909 8cbc f008 b03e
000000b0: e300 a83e 8e5a a53d 1446 463e 7707 663e
000000c0: 4784 063e 63a6 7e3d 3051 de3d 4142 93bb
000000d0: d83c d33e efa0 7ebc 2e77 e0bc 254a a33e
000000e0: 2e34 943e 639c 893e 6d8b 983c 453d 933d
000000f0: 2f2a 61bb c92e f2bd 4449 4a3e 950f 02bf
00000100: 51df df3d 405f 3839 198c acbe a07b cebe
00000110: a4b5 213e 0b59 62be df3a 58be 3dcd d73c
00000120: 7f7e 503e a7c1 8cbe 7103 45be a508 a93d
00000130: 5666 efbc f7c9 e43b 07ee 05be 2a9e babe
00000140: 3cd8 ea3c b9ea 80be f92c 913c 92c8 23bc
00000150: bc19 f8be 5d51 3d3e c659 d8bd 2482 0bbe
00000160: d63b b5bd 95bd 7dbd cf6a 0ebe 0c96 d3bd
00000170: 4a87 9fbd 310d 783d c01b c53d 3e47 bbbe
00000180: e6f5 e6be 5e13 dfbe 9245 833d 9247 c93d
00000190: 1f92 a13e 9af8 623e 6c5f a93e 3109 9a3e
000001a0: d91d 19bd 1c80 b53d 5bda 783d 646b 373e
000001b0: fd48 8d3e 293e 0d3e a4cf 043e 65bf bbbd
000001c0: cefb d6bd cc8f 0e3e 2a10 5f3e 8b04 f73b
000001d0: 7123 073c dd99 ae3e 906f 583e 9237 503e
000001e0: 6496 4b3e f172 a53d 3da9 503e 0d23 d03c
000001f0: e110 b03d eecc f1bc 9290 f63c 7bad d53d
00000200: deb6 81be 8816 83be 96c1 e5be dfbd d63c
00000210: 7c07 b83d 9798 00bd 9c52 59bd c145 f7bd
00000220: 3f25 073e 14c5 2abc af08 fabd 848b 23bd
00000230: a2dd b33d 8807 8fbe 6989 163d 050b 203d
00000240: 2c68 e43d b694 8a3d 123b 2cbe e7d5 15bc
00000250: 1f0a f2bd 5aa4 903c b01d 97bb 5297 f0bd
00000260: 51b1 d03e 88a6 1dbe 8a7f c6bc 309e e53e
00000270: db67 0d3d fa81 86be b4ee 943d 03eb 043d
00000280: 3307 00be 5335 89be a3b1 8cbe 6e27 153d
00000290: e944 58be 8eb4 e6bd e84d 9f3d 991e 063d
000002a0: 46c3 8bbe fcc9 04be 3378 5fbe 1d52 23be
000002b0: bd33 5b3d 8d0f 35be cec1 00be 5df4 fabd
000002c0: fe5e bf3d 9d9d 103e 11ad 86be 69d6 07be
000002d0: 8fcf 5abe e28c f7bc c57c f4bd 0666 febd
000002e0: 4160 68be d3a9 19be 7ca0 84be 5d47 84be
000002f0: 2ac2 75be 134e 81be dba9 963d 87fe 96bd
00000300: dc32 08bc 9b9b 7cbd aba3 84be 6a85 16be
00000310: feb3 e3bd f193 083f 8e9f 713e 1510 ab3d
00000320: 6481 333d 017c ed3d c3bc a63d a41d 813e
00000330: 36a1 9c3d f23a 84be ae16 68be 8bcc b33d
00000340: 6f8f 3dbe a841 84be 09fb 91be db12 973d
00000350: 6c92 3dbe 9645 333e 51ab 313e a222 9d3e
00000360: 77df 8dbe 7cae 2dbe 54c5 41be 8a51 2cbe
00000370: 3dec 37be a0df 8abd 6f21 a1be 6e6d e4be
00000380: 46af 353e 25c8 733e 50f0 2bbe c772 a13c
00000390: 54a9 0fbe 6ca8 8abe a6d1 d5be abc7 c93d
000003a0: 24a4 8d3e 6550 c43e 1a53 4a3e 73a7 043e
000003b0: 17c9 4cbe 2203 3abe d6fd c6be 2a88 bebc
000003c0: 10e4 dcbd c45d d0be a6d6 a83e 6a3b 2a3d
000003d0: b9a1 1a3e 5f52 853e bc6e b13e 8361 b93e
000003e0: dd39 df3e 60b1 693e ef8e 893e 8186 553e
000003f0: 214a 683c 91f9 063e abdb e13e 4c5b b43e

l1.bias f4 [8]
0.7304408 0.25829777 0.32520962 0.78491855 0.28527308 0.59464115 0.97318006 0.6183124
00000000: 2bfe 3a3f 9b3f 843e e081 a63e 6cf0 483f
00000010: 500f 923e 673a 183f 5422 793f b949 1e3f

l2.weight f4 [8, 8]
0.43063557 0.08590448 0.9945474 0.9378887 0.51384026 0.10341897 -0.22954552 -0.15361336
-0.007931424 -0.46781507 -1.0542464 0.7262745 -0.743063 0.68137276 0.8724093 -0.2274639
-0.036727313 0.8467979 -0.4443046 -0.2398791 -0.21506225 0.61674017 -0.8984559 0.61894673
-0.45634893 -0.35328513 0.55821216 0.005642744 -0.8092365 0.9100623 0.046897672 1.0834671
1.2410984 0.4041417 -0.10658066 0.33318996 0.5177787 -0.4481653 0.3053035 -0.28103808
-0.34916872 -0.33444986 -0.27641413 -0.03179583 -0.19714092 -0.28179538 -0.20890233 0.3165656
0.8653689 -0.3788389 -0.15231131 0.53442496 0.78503495 -0.31045413 0.9059441 0.7242346
0.1835328 0.078341514 -0.18473743 -0.19629864 0.2606186 -0.33848754 -0.28612432 -0.015283674
00000000: 447c dc3e b0ee af3d a99a 7e3f 7919 703f
00000010: 098b 033f 53cd d33d fb0d 6bbe d24c 1dbe
00000020: cef2 01bc 7585 efbe 8cf1 86bf 20ed 393f
00000030: 6039 3ebf 726e 2e3f 3756 5f3f 4cec 68be
00000040: 616f 16bd bfc7 583f e47b e3be dea2 75be
00000050: 4739 5cbe afe2 1d3f 3501 66bf 4b73 1e3f
00000060: 91a6 e9be cae1 b4be fee6 0e3f c4e6 b83b
00000070: 202a 4fbf d8f9 683f c617 403d 0daf 8a3f
00000080: 50dc 9e3f a9eb ce3e f646 dabd e097 aa3e
00000090: 258d 043f ec75 e5be be50 9c3e 39e4 8fbe
000000a0: 3ec6 b2be 033d abbe 2786 8dbe 583c 02bd
000000b0: 4fdf 49be 7c47 90be 7eea 55be e314 a23e
000000c0: d188 5d3f 2cf7 c1be 7ff7 1bbe 13d0 083f
000000d0: 0df8 483f d8f3 9ebe f4eb 673f 7067 393f
000000e0: 06f0 3b3e 8471 a03d cf2b 3dbe 8302 49be
000000f0: cd6f 853e 3d4e adbe e37e 92be 6068 7abc

l2.bias f4 [8]
-0.36613926 0.5721332 0.11719542 0.19466105 0.15560752 -0.2847546 0.7037866 -0.13819063
00000000: 9b76 bbbe 5277 123f 2704 f03d 3a55 473e
00000010: 9457 1f3e 5bcb 91be 5c2b 343f d881 0dbe

l3.weight f4 [8, 8]
-1.2363353 0.8182928 -0.8400148 0.5198317 -1.2437786 0.08820963 0.34092838 -0.32279676
0.20468849 -1.4689425 -0.7019935 -1.1113465 0.27145472 -0.21945067 0.7501974 0.21995172
-0.4352276 0.8705412 -0.5735205 -1.5757273 0.06537194 -0.34422234 0.4990993 -0.14948146
0.18061976 -0.90772057 -1.029134 0.04316028 -0.53466445 -0.23124121 0.20837398 -0.009753317
-0.74744976 -0.7187292 0.5907959 0.23534818 -0.4381386 0.12560228 -1.0375183 0.27534917
-0.17224453 -0.97142977 0.39295372 -0.82809085 0.37025526 -0.023370385 -0.38653672 -0.018674642
-0.0917335 -0.7653595 -0.07887846 0.44367757 -0.51780957 -0.058694243 -0.572534 -0.30722722
0.52487504 -0.82000804 -0.7709355 0.14480732 -1.3100512 -0.3441151 -0.8526276 0.35178742
00000000: 3c40 9ebf a37b 513f 360b 57bf b113 053f
00000010: 2334 9fbf 40a7 b43d 2a8e ae3e 9e45 a5be
00000020: dc99 513e 4f06 bcbf d9b5 33bf 9a40 8ebf
00000030: 1dfc 8a3e adb7 60be f00c 403f 063b 613e
00000040: 27d6 debe cadb 5e3f 3dd2 12bf 6fb1 c9bf
00000050: b9e1 853d e93d b0be f289 ff3e ab11 19be
00000060: 63f4 383e 6060 68bf aaba 83bf d5c8 303d
00000070: c5df 08bf 7fca 6cbe fd5f 553e 60cc 1fbc
00000080: de58 3fbf a3fe 37bf 663e 173f 1dff 703e
00000090: b453 e0be e29d 003e 66cd 84bf 91fa 8c3e
000000a0: df60 30be 9faf 78bf 3b31 c93e c3fd 53bf
000000b0: 1992 bd3e 4073 bfbc 24e8 c5be 90fb 98bc
000000c0: c6de bbbd 9aee 43bf 088b a1bd b529 e33e
000000d0: 2b8f 04bf 6069 70bd 9791 12bf e34c 9dbe
000000e0: 365e 063f 0cec 51bf 075c 45bf 5f48 143e
000000f0: c2af a7bf db2f b0be cd45 5abf 7b1d b43e

l3.bias f4 [8]
0.122930124 -0.06855077 -0.2835277 -0.4391768 0.048516713 0.2900209 -0.124246076 -0.21658488
00000000: cac2 fb3d 5964 8cbd 8b2a 91be c8db e0be
00000010: 76b9 463d 9f7d 943e ba74 febd 6dc8 5dbe
